abcd_classifier.pth (torch, 320992 bytes, 8 tensors)

conv1.weight f4 [16, 1, 5, 5]
00000000: 19eb 18be 61af 50be 7328 19be 48dd b9bc
00000010: a02f 35be 50b9 5d3e af73 3f3e 8e20 603e
00000020: 8e99 e9bd a733 b23d bae5 69bb c524 603d
00000030: c275 903e 83b0 883e b275 683e 48d9 7fbe
00000040: f041 3dbe 93db 353e 0f93 3abd ea2f 4b3e
00000050: 15e3 cbbd c7af 3dbe da21 7eba 7e27 103d
00000060: 53ae 96bd d60e 283e d04a 50be 0952 92be
00000070: 60a3 b5be 1a19 e4be 99a1 58be 86d9 cbbd
00000080: a6e0 a1be 23a5 36bd 82fa 84bc 6f3e 6e3d
00000090: 7517 3dbe 0d9f 29be c9dd c6bd 2f59 c7bd
000000a0: 57fe 813e e056 8d3e d1a6 023e a1f1 d0bd
000000b0: acd0 8d3d 8174 32bd ad90 c93d 4b30 053e
000000c0: 737f 4b3e ff03 9cbd b493 42be f40b 6fbe
000000d0: 9480 88be 1650 08bd 5ff3 0abe e91f 013e
000000e0: 4d64 413d c90e 26be bb86 2f3c 2ab5 643e
000000f0: 0977 593e 9d49 7e3e 514c e9bc 396a b43c
00000100: 29bd 823e 42e0 933d eb8b c43d 8c90 c6bd
00000110: a790 6dbe e855 cd3d 8469 2bbe 90ac ce3d
00000120: 5167 4a3d b9f0 333d abfa 4d3e 693e 0b3e
00000130: 722b 933d 341a 3c3e b64d 083d ecbe 283e
00000140: 2402 543e 0eeb 8e3e d4c1 ed3d 89db 173e
00000150: 70a4 6fbd 14b2 fc3d 96ed 453e 81f5 9b3c
00000160: c97c 02be 1767 66be 9b03 6d3e 5992 0f3d
00000170: c1b2 4bbe d690 7dbe abf7 6cbe 1309 f23d
00000180: 1f10 89bd e098 b2be e3c2 b5be f32a 6d3d
00000190: fd26 69bc 78f1 8ebe be6d 82be 96b3 65bd
000001a0: 07a5 88be 4bde 3e3a 59fa edbd b0c1 82be
000001b0: c804 85bd afbf b03d 5a05 fa3d b52d 303e
000001c0: fe4b fb3d 8d49 9dbc eb52 713d 0442 433e
000001d0: 8521 fa3c 308c a9bd 3695 07be 44f4 4b3e
000001e0: e1bb a13d 227f 933e 6aa3 8b3e a5ee 92bd
000001f0: 0909 643d 486c 303d 0d7e 333e f56b 0e3e
00000200: e89d d5bd 43c2 8e3d b71a 1e3e f531 723d
00000210: 43d0 0bbe fb25 0f3e c81f 94bd 186e 07be
00000220: cbd1 433e c6e5 a43d 5324 1d3e 1673 663e
00000230: db5f 9fbd 8e2d b0bd 7c40 cfbd eb2c e9bd
00000240: 64b0 7f3c f1f5 0c3e bf94 943d 9c95 88bb
00000250: f1fe b73d 87bf 84bd 6d53 e8bd b2e7 de3d
00000260: 61a1 5b3d 8de3 f83d 8840 0a3e cfb2 0e3e
00000270: 620a a3bd f26d 6f3e 106e 213e 3442 a1bb
00000280: 817f 093c b706 463b 4063 853c 06d3 433e
00000290: 7cba 203e 6607 16be 3095 6d3e 335a a83d
000002a0: c940 7a3e 026b 783e a3b1 b63d f4ea 8dbd
000002b0: 1b59 88bd ba77 783e ba15 863e 95a9 44be
000002c0: cae2 9abe 0982 80bd 89c6 1f3e b995 a53e
000002d0: a60b 0bbe fb4c b0be 5a1b 79be 845b 7fbd
000002e0: 6a56 d63e a87a 91be 7a25 5cbe 1aa7 90be
000002f0: 17bb 0d3d 1e37 b83d f45b 9abe 22df 53be
00000300: e42e 89be 2af5 db3d 256f 143e b166 87be
00000310: c646 6dbe 4d31 9bbd 37d3 793c b7af 563e
00000320: 658a 83bd 18f8 0dbe 17bf 7bbe 68d1 32be
00000330: 23bf 483e 45ba 0b3e 3b6f f13d 9ea1 1abe
00000340: 0df0 d13d c094 b23d f4c5 27be 228a 833d
00000350: 4cb2 873d 421f 163e 1001 4b3e 5377 c7bd
00000360: cf9c f3bd 18e1 00be 191e 6f3e 2639 cb3d
00000370: 5df3 033e a450 973d 00e3 6f3e 0350 4e3e
00000380: 47df 5bbd bc51 a83c b505 a03b 7657 eeba
00000390: a4d9 88be b67e 29be a97a 17bd 814f b6bd
000003a0: 182d 7cbe b1b8 3fbe 93b4 a63d d5d3 133e
000003b0: 4d49 53be df4c 54be 1ef4 493e ca99 273d
000003c0: dbb4 8b3c b864 953d f7d7 5a3d a564 6e3e
000003d0: 8f58 773e 822b 6e3e afde 8d3d e8ec 963e
000003e0: 0d55 3f3e d4eb a2bc 88b1 903c d08b 5a3d
000003f0: b53c 2b3e 6f37 653e f48e 0fbe ed77 e93d
-0.14933433 -0.20379402 -0.14956836 -0.022688523 -0.17693949 0.21652722 0.18696474 0.21887419
-0.11406241 0.08701258 -0.0035689906 0.054722566 0.28214842 0.26697168 0.22701147 -0.2498523
-0.18482184 0.17759542 -0.045550402 0.19842497 -0.09955422 -0.18524085 -0.00096943753 0.035193913
-0.073574685 0.1641191 -0.20341039 -0.28578213 -0.35476208 -0.445504 -0.21155395 -0.09953599
-0.31616706 -0.04459108 -0.016232733 0.05816501 -0.1846598 -0.1656458 -0.09710271 -0.09733807
0.25389358 0.27605343 0.12758948 -0.10202337 0.069245666 -0.043568138 0.09842048 0.13006704
0.19872837 -0.0761795 -0.19001657 -0.23344404 -0.26660597 -0.0332795 -0.13569401 0.12609829
0.047214795 -0.16216578 0.010713275 0.22334734 0.21236815 0.24832769 -0.028478773 0.022023307
0.25534943 0.07220508 0.09597 -0.09695539 -0.23199712 0.10026151 -0.1673947 0.100915074
0.049414936 0.043930743 0.20115153 0.13598026 0.07186021 0.1836937 0.033277236 0.16479081
0.20703942 0.27913707 0.116092354 0.1482984 -0.05850643 0.12338653 0.19328913 0.019037964
-0.12742914 -0.22500263 0.23145907 0.035051677 -0.19892408 -0.24762282 -0.23141353 0.11818137
-0.06692528 -0.3488226 -0.3550025 0.057902288 -0.014230487 -0.279186 -0.25474352 -0.05607947
-0.26688406 0.0007281049 -0.11620016 -0.25538397 -0.064950526 0.08630311 0.12208052 0.17204936
0.12270354 -0.01920011 0.058916967 0.19068152 0.030533561 -0.08278692 -0.13240513 0.19917399
0.07897163 0.28807932 0.27273113 -0.07174424 0.05567268 0.043072015 0.17528553 0.1390837
-0.10430509 0.06970646 0.15439878 0.059129674 -0.13653664 0.13979332 -0.07232624 -0.13225591
0.19122998 0.08051638 0.15345888 0.2250484 -0.07781955 -0.08602439 -0.10119721 -0.113855205
0.01560602 0.13765694 0.072549336 -0.0041682255 0.08984173 -0.064818434 -0.11344037 0.10884036
0.0536207 0.12152777 0.13501179 0.13935398 -0.07960965 0.23381785 0.15764642 -0.004921222
0.008392216 0.0030216405 0.016282678 0.19123468 0.15696138 -0.1465126 0.23201442 0.08220329
0.24438776 0.2425957 0.089206 -0.069295794 -0.066576205 0.24264422 0.2618845 -0.19205315
-0.3025115 -0.06274802 0.15603079 0.32340792 -0.13578662 -0.3443373 -0.2432684 -0.062343135
0.41862804 -0.28413892 -0.21498671 -0.28252488 0.03460225 0.08994888 -0.3014828 -0.20690587
-0.26793587 0.10740121 0.14495523 -0.26445535 -0.23171529 -0.07577763 0.015248111 0.20965467
-0.06422881 -0.13864172 -0.24584614 -0.17462695 0.19604163 0.13645275 0.11788794 -0.15100715
0.10250864 0.08719778 -0.16384107 0.06422831 0.06625804 0.14660361 0.19824624 -0.09739556
-0.11895143 -0.12585866 0.23351325 0.099230096 0.12885804 0.07388428 0.23426437 0.2014771
-0.05367973 0.020546786 0.004883493 -0.0018184024 -0.26728547 -0.16552243 -0.036982212 -0.08901883
-0.24626577 -0.18722798 0.081399105 0.14436276 -0.20633431 -0.20732449 0.1972203 0.04091815
0.017054012 0.07294601 0.053428616 0.2328058 0.24154876 0.23258784 0.06927239 0.2947762
0.18684788 -0.019887842 0.017662778 0.05335599 0.16722377 0.22384427 -0.14019376 0.11399827

conv1.bias f4 [16]
00000000: e83c 88bc dc9a 983e fe4d 25bb 14f4 e9bd
00000010: 2eee e7ba a1fe 42bd 0d69 a4bd 1056 9c3e
00000020: 4bd0 cabc c91c bdbd fd48 1fbd 63e6 c6bd
00000030: 782d bb3d e431 063a 4236 fe3d 935b 1bbd
-0.016630605 0.29805648 -0.002522349 -0.11423507 -0.0017694884 -0.047606114 -0.08027849 0.3053441
-0.024757525 -0.09234006 -0.038887966 -0.097119115 0.09139532 0.00051191286 0.124126926 -0.03792913

conv2.weight f4 [32, 16, 5, 5]
00000000: ef66 01bd b8a4 473d 729c 4c3d 13ba 133d
00000010: 871e 36bb eaed ed3d d6a2 b73d 8919 f23d
00000020: a5f9 cc3d 6c93 09bc 5c30 d9bc 7720 b9bc
00000030: 018c c5bc 04ec 18bd e032 f0bc fefc 04bd
00000040: 85df 863c 32f5 36bd bad2 90bd 5ac3 5fbd
00000050: 5386 ed3c 23c1 723d 812c 25bd 6102 433d
00000060: 7790 dc3c ebfe a93d b828 9b3d 8b6e 4e3c
00000070: eb1a 9e3c 7c09 cb3c 3d63 3bbd 119c 5cbd
00000080: 208a bfbd 30b4 50bc c30f 2a3c ee9d 0fbe
00000090: 914a d0bd e347 8ebd b0e9 babd 8c98 ebbd
000000a0: 43c1 0bbc 1a1b d43c 6395 aebd 883b 7bbd
000000b0: 4ae7 403c a91b 0f3d 3004 dabb d503 1ebb
000000c0: 37a5 b93d 1845 b43d 611e 0c3d 281b c03d
000000d0: 9f03 1e3d 0976 3b3d 616b 97bd 83e4 363d
000000e0: 8dbf ed3d d7bf 283d ccad 883d 5033 e13c
000000f0: 5ea4 38bd b5b0 be3c c085 a2bb bc79 7dbd
00000100: aa32 c1bd 6a41 833b cd17 3f3a 692a 81bc
00000110: 2206 3bbd 6773 dabd 4f93 08bc f901 3e3d
00000120: 3ab1 87bc 74aa 41bd b4c4 1b3c a2fe 93bd
00000130: eb1a 3fbd 7bf7 bbbd 0fd7 49bd e612 a63c
00000140: 87f0 b13d dd2f 55bb 9271 673d c986 b53d
00000150: 9b89 8c3d b9b0 733d 5cda 8abc f470 603d
00000160: 8a53 133e 2f90 093e fa0d b4bd 59f8 21bd
00000170: 502f 083e af66 a63d 5f57 b23a 21b5 3fbd
00000180: 2f12 923d 3bc4 223d b19b 05bd 5025 88bc
00000190: 59f0 b33d a165 1c3d 0e04 8d3d eaeb 9b3b
000001a0: e0ab 4ebb 8c94 79ba e3e5 d93c 5f97 2ebd
000001b0: 0c8e 6539 bdc9 dcbb 5f9b 69bc bafd 93bd
000001c0: 075c 8abd 1731 21be d31b 0dbe f131 483d
000001d0: 256c 783d e680 883c 8a4f 36bd 7030 26bd
000001e0: e7ce 2c3d ec46 b1bc 8fb4 9cbd 2eb3 f339
000001f0: b380 0b3e f7ff 193c f593 3bbd 0860 233b
00000200: b205 123c c1b2 f8bc 5b17 633d 801c 1d3b
00000210: 46ff 63bc 9fe2 8e3c a9c5 6cbb 88ab 55bd
00000220: ed0e 15bd 3bf7 113d 83a7 bd3c 87fe 45bd
00000230: 9fbe 9b3b cc8b 8cbc 24e3 e7bc d69d 8d3c
00000240: 488c 63bc 60d1 b3bc 7d9f 37bc 3248 42bc
00000250: 1def 34bd 4e76 0bbd 84e5 debc e755 203d
00000260: d179 5e3d 95f9 613c f754 a7b9 c166 78bc
00000270: dc07 05bc 8f79 3f3d fe60 62bc 23c2 bebd
00000280: f25c babb 044e 513d 8539 813d ce60 46bd
00000290: d52e e0bd 3289 2cbd aeef 663d 72d8 153c
000002a0: a86d 8abd 9239 b3bd 4a44 d23c dc70 d03c
000002b0: 3792 acbb 8566 6cbd b1a5 803b e399 1bbe
000002c0: ac90 81bc 80ba b5bc 8c05 c1bc 5b8a 2bbd
000002d0: 9c0b d2bd 9292 32bd 9ddc c8bc ad68 74bd
000002e0: 6db5 ddbd bd92 91bc b402 c6bc bd46 62bd
000002f0: c6cd cdbd 079e 7fbd 3f78 93bd a1dc 18be
00000300: 7d23 37be aef3 49be 7d36 21be 39ad b0bd
00000310: 303e 10be 9de1 68be 9c0a 80be 64b5 50be
00000320: 3eca 383a 7079 9bbc 13b4 623d 8ac2 d2bb
00000330: cd8f dcbd 8326 0bbd 2ed0 9d3d 2903 7f3d
00000340: 0e0c 853d 5295 cbbd 67f5 42bd e23b c63d
00000350: 02a4 f73d bb6f 8f3c a010 f0bd fece 1d3d
00000360: 789a b03d 3fe8 8a3d b671 e63c f056 643c
00000370: 8775 d73c 7cd5 5dbd 653b 41bc cb0f 893c
00000380: bf07 503d c2e7 b53d c559 25bc 6dc5 d0bc
00000390: fb9b 41bd 0a87 8ebd 375a 7dbc 994c 11bd
000003a0: c20d d5bc 2173 d4bc 1901 c7bd d087 01bd
000003b0: 6aaf c73d ffb8 d73d de7a 94bd ce81 58bd
000003c0: 0015 143e aa8c a63d 5ab4 cd3d b4e3 483c
000003d0: d9c9 e83d 71c3 fa3b 8690 4a3c 422f 7a3b
000003e0: 76b2 373e dbd4 643d 436a 2b3c f4e7 323d
000003f0: a3c7 7f3c 4cdc 933c e8e4 863b 574e 913d
-0.031592306 0.048741072 0.049953885 0.036066126 -0.0027789192 0.11617644 0.08966605 0.11821277
0.100085534 -0.0083969645 -0.026512317 -0.022598488 -0.02411461 -0.037334457 -0.029321134 -0.032467835
0.016464004 -0.04466743 -0.07071443 -0.05462966 0.028994715 0.05926622 -0.040325645 0.04760969
0.026924355 0.08300575 0.07576126 0.012599598 0.019299945 0.024784796 -0.045748938 -0.053859774
-0.09352517 -0.012738273 0.010379734 -0.14025089 -0.101704724 -0.06947305 -0.091266036 -0.115037054
-0.008529964 0.02589183 -0.08524587 -0.06133607 0.011773894 0.03493849 -0.006653331 -0.002411117
0.09064715 0.08802241 0.03420866 0.0938018 0.038577672 0.045766864 -0.07393528 0.04465152
0.11608801 0.041198578 0.06673774 0.027490288 -0.045078628 0.02327762 -0.004959792 -0.061883673
-0.094334915 0.0040056007 0.00072896184 -0.015767293 -0.045660146 -0.106665425 -0.008335902 0.0463886
-0.016564 -0.047281697 0.009507347 -0.07226302 -0.04665653 -0.091780625 -0.04927736 0.020272683
0.08688455 -0.003252975 0.056504793 0.08863599 0.06862184 0.059494708 -0.016949825 0.05479522
0.14387336 0.13433908 -0.08791728 -0.039543483 0.13299298 0.08125054 0.0013606361 -0.046803597
0.071323745 0.03973792 -0.032619182 -0.016619354 0.08786077 0.03818286 0.06885539 0.0047583478
-0.003153555 -0.00095207314 0.026598876 -0.042624827 0.00021892058 -0.0067379163 -0.014258235 -0.07226129
-0.06755834 -0.15741383 -0.13780145 0.048875753 0.06065001 0.016663026 -0.044509448 -0.040573537
0.042189505 -0.021640263 -0.07651626 0.0004648207 0.13623314 0.009399406 -0.0457954 0.0024929065
0.008912491 -0.030358674 0.055442195 0.0023973286 -0.013915842 0.017442046 -0.0036128557 -0.052165538
-0.036391187 0.035636168 0.023151165 -0.04833844 0.0047529484 -0.017156504 -0.028306551 0.017287176
-0.013888426 -0.021950424 -0.011207459 -0.011858033 -0.04417335 -0.03404837 -0.027209051 0.039144423
0.054315392 0.013792415 -0.00031916026 -0.015161217 -0.00811955 0.046746787 -0.01381707 -0.093143724
-0.0056873495 0.051099792 0.06309799 -0.048432164 -0.109464325 -0.042123027 0.05638092 0.009145843
-0.067591965 -0.08751215 0.025667328 0.02544444 -0.0052664536 -0.057714958 0.003926002 -0.15195422
-0.015816055 -0.022183657 -0.023562215 -0.041879993 -0.102561206 -0.04359681 -0.02451926 -0.05967014
-0.1082562 -0.017770166 -0.02417121 -0.055243243 -0.10049014 -0.062406566 -0.072006695 -0.14927913
-0.17884631 -0.19721863 -0.15743442 -0.086267896 -0.14086223 -0.22742315 -0.25008094 -0.20381695
0.00070491794 -0.018978804 0.055347513 -0.0064318823 -0.10769615 -0.033972275 0.07705723 0.062258873
0.0649644 -0.0994059 -0.047597315 0.096793905 0.12091829 0.017509332 -0.11721921 0.03852748
0.086232126 0.06782579 0.028130393 0.013936743 0.026301159 -0.054158673 -0.011793946 0.016731163
0.050788637 0.08882095 -0.0100922035 -0.025484765 -0.047267895 -0.069593504 -0.015463403 -0.03547344
-0.026007537 -0.025933804 -0.09717006 -0.03162366 0.097502545 0.10533332 -0.072499976 -0.052858166
0.14461136 0.08132298 0.10044165 0.01226132 0.113666244 0.007652693 0.012363559 0.003817514
0.17939171 0.055867057 0.0104623465 0.04367824 0.015611562 0.018049382 0.004116643 0.0709502

conv2.bias f4 [32]
00000000: 8dd2 69bd f101 5ebd 4991 97bc 896d 843d
00000010: 4191 00bd dab6 cc3d 8548 c7bc 2fc9 ca3b
00000020: b2f8 aebc a6d9 84bd 1afd 113d 3d25 4d3c
00000030: c356 17bd cd82 233d 6ec1 21bd bd8a 93bd
00000040: f5ac 4dbd 33f8 2ebd 2ae4 b7bd 07cb 59bd
00000050: 6ad1 f1bc 52cf bebd 0215 c3bc 213a f2bb
00000060: eb4d 9e3d e44a c8bc 4713 673c 1b36 eebd
00000070: cc58 023d 2634 bb3d 78ba 8bbc 5caa 553c
-0.057085562 -0.05420107 -0.018501895 0.06466205 -0.031388525 0.09995814 -0.024326572 0.0061885337
-0.021358822 -0.06486826 0.035641767 0.012521085 -0.036947977 0.039919663 -0.03949111 -0.072041966
-0.050213773 -0.04271717 -0.08979066 -0.053172138 -0.029518802 -0.09316887 -0.023813728 -0.0073921834
0.077297054 -0.024449773 0.014103717 -0.116314135 0.031822965 0.09140806 -0.017056689 0.013041105

fc1.weight f4 [128, 512]
00000000: d87c 493d cf96 30bd 5a6f 28bd 7399 883c
00000010: bdbd 13bd 796f d7bc 06b1 543c fe2c b43b
00000020: 742e 72bc 6c13 fd3c 54d8 863d 8807 d83d
00000030: 2503 233d 93fd ddbb c9f5 613d cc26 8abc
00000040: ac35 a63c bea5 75bc eb38 e6bc c3a4 24bd
00000050: 043d 393c 3194 99bc fea9 2f3d 0c09 733d
00000060: 8d3a 30bd 835e 7e3d 617a 823d efda e13c
00000070: cff7 20bc c9dd c0bd 91cd 2bbc 4198 093d
00000080: 38c3 bdbc d1e4 e93b 35ac 0ebc c7dc 733d
00000090: 8a24 f0bb 8d3d b0bc ea04 22bc 1de8 cd3c
000000a0: 6889 143d 8594 023d 7056 d23c ecb4 033b
000000b0: 90c0 cb3c 826d ab3c 0ae1 2dbd 6027 233d
000000c0: d76f aabd bca9 023d 03b6 b33c 05e2 933a
000000d0: 24e7 e5bd 2ab8 44bd b134 95ba 1616 3ebd
000000e0: 9e20 37bd bf3f af3d b147 193d 024f 5e3d
000000f0: d456 95bc c4de 933d c571 7f3d c9a9 3e3d
00000100: 9df2 8b3b da9e fdbc 7284 033d 7e1b 073d
00000110: ce49 b03c 2cd7 663c 56ec 0c3d 6ebe 4abc
00000120: 555f 91ba 25b0 433c c575 5b3c 0a8e b8bc
00000130: a842 a03d 29d9 a33c 2460 a0bb a667 95bd
00000140: da56 c43b c48d 2a3d 938e e9bb f3f0 88bd
00000150: 5737 753d c863 d63c e4ec 1a3d 31db dfbd
00000160: 2cef d03b 2bef 073c c42f 69bd 4cc9 323c
00000170: c1be 6c3d ff3e 433d af8b 06bc a68d 723c
00000180: 8c0d 8fbd 5f65 8abd ff2c 12bd b35a 2dbd
00000190: 0076 39bc 2d7c ea3c d7fe 75bc 07ff c8bc
000001a0: 654c 173c 2e52 fa3c 1b6d 373c 0d01 e83c
000001b0: 7606 7ebd 3449 a6bc 9410 f1bc c501 0b3d
000001c0: c5fb 25bd 0fbb 1dbd f092 1e3c ad77 54bd
000001d0: f069 d2bc f4ef 67bd f070 9e3c b9ae 1f3c
000001e0: 7ae8 5ebd 9bce 8cbb 36d9 063e 13a2 373d
000001f0: 73d6 2c3d 14b6 583b bf77 0d3a 0206 adbc
00000200: 3587 5fbd 0a79 fa3c f999 ac3c b711 903c
00000210: 519c 8dbb 6cfc f93b d021 b8ba fb0e c33d
00000220: 3c81 96bc 99ea a73c d318 ef3c dae4 513c
00000230: af6e 8cbd f043 95bd d3ba acbd 7fbd 43bd
00000240: 38bf 913a 4444 d83a 8f62 203d 58d7 883d
00000250: 6a3e f93b cfde b3bc 7a36 b93c c77e 9b3c
00000260: d1d0 adbd 865e 443c b6d0 7cbc dec1 0cbc
00000270: 35ff ccbd fb48 153c a180 f23c e0c5 d73d
00000280: 2085 ccbc 6fb7 1a3b a19b 1cbd f456 0bbd
00000290: c573 e03c 39cd 2a3c c675 0ebd 0930 62bd
000002a0: e88b 693d 5502 1d3d 740b 833b 8969 023d
000002b0: 9fba 053e 1e79 243d 1d1b 643d 9cc6 38bd
000002c0: d27f 0d3c 4291 88bd a41f 36bd 1b57 2cbc
000002d0: 47d8 7c3c db11 85bd 606f 39bd a95f b1bb
000002e0: 9d1f 243d 1d68 003b 8b3d f8bb 29c2 febb
000002f0: b2f6 c83d bccf 243d d813 753d 91bd f23b
00000300: 138c 4fbd 488f 96bd da11 20bc f300 4dbd
00000310: cedd 65bd 9f14 e23c caff 2bbc f58f f1bc
00000320: b984 ea3a 6995 e53c 0c41 dcbc abf3 5cbd
00000330: e0a1 873c 3d80 143c efa1 973d ac81 aebc
00000340: 0ce1 99bd c4b5 87bc e536 d63b 9694 2fbd
00000350: c4b0 c7bd ad91 40bd 25f2 393b 803a cf3d
00000360: 3a77 a5bc 9981 123c b41c 303d 948c 9dbc
00000370: 172f 61bd c6d5 253b 686a c93d f53c 6d3d
00000380: eab6 85bd 598f 6cbc 64d4 1e3b 8761 49bd
00000390: ea79 52bb 8ba3 e83b 64f1 b43d d74f 823c
000003a0: 2a64 043d cbcc 7c3c 1951 b23c d21a 45bb
000003b0: b086 b6bc 0c77 913d 4043 323d 6438 9b3d
000003c0: ad9d 993b 0f78 78bd d2c4 773d c56f 363d
000003d0: 6474 a0bd 0a9f 303c 5ef0 613d 1b9c cc39
000003e0: 2a49 5b3d 739d e13c c8fc 153d ecd1 23bd
000003f0: fa94 70bc a1d3 af3d b15b 303d 0770 963d
0.049191326 -0.043112572 -0.041121818 0.016674733 -0.03606962 -0.026298271 0.012981659 0.0054985275
-0.014781583 0.03089305 0.0658423 0.105483115 0.03979792 -0.006774613 0.05516604 -0.016864203
0.020289265 -0.014993129 -0.028103312 -0.04019619 0.011306051 -0.018747421 0.042886727 0.0593348
-0.04302459 0.062101852 0.06370998 0.027570216 -0.009824707 -0.09417302 -0.010486023 0.033592466
-0.023164377 0.0071378727 -0.00870805 0.05953672 -0.0073285745 -0.021513725 -0.009888867 0.025135094
0.036263853 0.03187992 0.025675982 0.0020096852 0.024872094 0.02092624 -0.042450942 0.039832473
-0.08322113 0.031900153 0.021937376 0.0011282569 -0.11225727 -0.048027195 -0.0011383501 -0.04640778
-0.04470884 0.085570805 0.037421886 0.054274566 -0.01822988 0.072202235 0.06236436 0.04654864
0.004270865 -0.030959535 0.03210873 0.032985203 0.021519568 0.014089387 0.034405075 -0.012374504
-0.0011091033 0.011943852 0.013394778 -0.022528667 0.07825214 0.020001011 -0.0048942734 -0.0729516
0.005991799 0.041639104 -0.007127592 -0.066865824 0.05986723 0.026170626 0.037823573 -0.10930479
0.0063761678 0.008296768 -0.05693032 0.010912251 0.057799105 0.0476675 -0.008212014 0.014804279
-0.06985006 -0.06757616 -0.035687443 -0.042322826 -0.011319637 0.028623665 -0.015014372 -0.024535669
0.0092345225 0.030556764 0.011195446 0.028320814 -0.06201788 -0.020298578 -0.02942685 0.033937234
-0.04052331 -0.03850847 0.009678587 -0.051871944 -0.02568528 -0.05662532 0.019340962 0.009746247
-0.054420926 -0.00429709 0.13168797 0.0448323 0.042196702 0.0033067511 0.00053965667 -0.021121029
-0.054572303 0.030575294 0.021069514 0.017586572 -0.004321613 0.007628968 -0.0014048163 0.09524342
-0.01837217 0.020497607 0.029186642 0.01281091 -0.06857049 -0.07288349 -0.084340714 -0.04778814
0.001111961 0.0016499837 0.039156493 0.066816986 0.0076063173 -0.02195683 0.022608984 0.01898135
-0.08487094 0.011985427 -0.01543062 -0.008591143 -0.100096144 0.009111638 0.02960235 0.105357885
-0.024965823 0.002360787 -0.038234357 -0.03401847 0.027398953 0.010424905 -0.034780286 -0.05522159
0.05701819 0.038332302 0.003999168 0.031838927 0.13059472 0.04015457 0.05568992 -0.045111284
0.008636432 -0.06668331 -0.04446377 -0.010518814 0.015432424 -0.06497546 -0.04527223 -0.005413015
0.04006921 0.0019593306 -0.007575696 -0.0077746105 0.098126784 0.040237173 0.059833378 0.007407852
-0.050670695 -0.073515475 -0.009769881 -0.050049733 -0.056119733 0.027597724 -0.010497997 -0.02948759
0.0017892338 0.028025346 -0.026886486 -0.053943317 0.01655668 0.0090637775 0.07403933 -0.021302067
-0.075136274 -0.016566165 0.0065373057 -0.042866312 -0.09750512 -0.047013927 0.002837309 0.1011858
-0.020198453 0.008942031 0.042996123 -0.019232072 -0.05497655 0.002530442 0.098347485 0.05791946
-0.06529029 -0.014438474 0.0024235481 -0.049165275 -0.0032116123 0.007099574 0.08835104 0.015907211
0.032322086 0.015429686 0.021767186 -0.00300758 -0.02228102 0.071027845 0.043521166 0.07579115
0.004687986 -0.06066137 0.060490437 0.044540185 -0.078347 0.010780105 0.055160873 0.0003902622
0.05353657 0.027540898 0.036618024 -0.03999512 -0.014683956 0.08585287 0.043056194 0.07345586

fc1.bias f4 [128]
00000000: f6f1 df3c e7f9 4d3d ce3e fe39 1cbb 8a3c
00000010: 8a81 833d ce8a c1bc 6cf2 823d 402f 033d
00000020: 092f 12bd 8d73 123d 1257 7d3c 39a5 a9bc
00000030: bef4 10bc 9b34 26bc da5a dcbb 8004 7f3d
00000040: c33d 123c bbb8 49bc 2f78 89bc 3ac0 ba3c
00000050: 30b9 8a3c bd86 fcbc a073 bdbc 05bc d9bb
00000060: f51d 183c 9678 203d faea 17bd e30b 27bc
00000070: 910b 9e3b 7f0c 833b c9ab 563c e92d 963c
00000080: b690 323d 6e9b 6abc ab43 453c d592 2ebd
00000090: ed40 713d 97be e33b d0cf 2d3c de5d 953c
000000a0: 78b9 e53c a821 113d 8879 19bc d24a 79bb
000000b0: 915e 8c3c 6c89 703d f25b 36bd c408 c93b
000000c0: c15c 023d 59f5 bb3c 6639 4bbc b82d 373d
000000d0: 0102 5b3d 8c62 a0bc dcf1 553d fcd3 333d
000000e0: 8c15 20bb 5253 6bbc 8e47 cdbc af64 033d
000000f0: 28c5 9b3c d0c5 003d 32bb 8e3c 3355 ed3b
00000100: 8faa 1e3d 45a5 cabc 8262 423c 8046 0abc
00000110: ceb9 fcbc 1211 e2bc 7562 1a3d 5aa5 15bd
00000120: c824 df3a 6d73 c43a 164c abbc b915 133d
00000130: 1f95 a73c 477c 2f3d b327 21bd 2265 05bd
00000140: 1af4 d03c 4595 e5bc e28d df3c 5a7d 2a39
00000150: 1670 7dbd 75c3 1b3d 918b 1abc a157 053d
00000160: 903c 363c 30fe 413c 2ecb 07bd 80d0 2e3d
00000170: 1d61 47bd d7ca b23c 97af 903d 7c6a 9c3b
00000180: 3d75 513c c753 313b d124 39bc 0bce 19bb
00000190: bf85 823d b4a2 86bb a417 ff3c 6665 f1bc
000001a0: e2a4 c2bc ad2c 073d d75e 963d cc2c 3bbd
000001b0: cdd8 b9bc d2cc 083c c91f 3bbd 5e8a a53a
000001c0: eb2a c2bc 5df9 8d3c 3e51 ff3c 044d 123d
000001d0: 7d6e 2a3d b3c5 813c 992c ebbc e0e2 2b3d
000001e0: a05e 4c3d fbd7 4c3c 4a4a cabb 3ebb 583c
000001f0: 458e 573b eae1 123c 7664 cc3c 5abd 15bd
0.027337056 0.050287154 0.00048493448 0.016934924 0.06421192 -0.023625758 0.063938946 0.032027483
-0.035689387 0.03575473 0.015462654 -0.020708667 -0.008847414 -0.010144378 -0.0067246975 0.06226015
0.008925858 -0.01231211 -0.01678094 0.022796739 0.016934007 -0.030825967 -0.023126423 -0.006644728
0.009284486 0.0391775 -0.037089325 -0.010195705 0.004823156 0.0039992924 0.01310248 0.018332439
0.04359504 -0.014319284 0.012040059 -0.0426205 0.05889981 0.0069502103 0.010608628 0.018233236
0.02804254 0.035432488 -0.009367354 -0.003803898 0.017134937 0.058724806 -0.04452128 0.006135078
0.03182674 0.02294414 -0.012403822 0.044721335 0.053468708 -0.01957824 0.05223261 0.043903336
-0.0024426905 -0.014363127 -0.025058534 0.03207844 0.01901491 0.03143865 0.017423246 0.0072428226
0.038736876 -0.02473701 0.011864306 -0.00843966 -0.030850317 -0.02759603 0.037691552 -0.036534645
0.0017024511 0.0014988013 -0.020910304 0.03590939 0.020456849 0.04284313 -0.0393445 -0.03256715
0.025507022 -0.028025279 0.027289335 0.0001625916 -0.06187447 0.0380282 -0.009432689 0.032554273
0.011122838 0.011840388 -0.03315275 0.04267931 -0.0486766 0.021825237 0.07064741 0.004773436
0.012784299 0.0027057992 -0.011300282 -0.0023468758 0.06373166 -0.004108751 0.031139202 -0.029467296
-0.023760263 0.03300159 0.07342308 -0.04569702 -0.022686386 0.008349614 -0.04568461 0.0012629738
-0.023702106 0.01733082 0.031166669 0.03571798 0.041609276 0.01584134 -0.02870779 0.04196441
0.04989493 0.012502666 -0.0061734067 0.013228236 0.0032891196 0.008964995 0.024950247 -0.036557533

fc2.weight f4 [4, 128]
00000000: 60db 063e 026b eabd 24cb cfbc bb43 0fbe
00000010: 4f83 24be b237 f83b 97c5 08be 9884 db3d
00000020: 8b75 e8bd 419c 863d ba9a 94bd 891f 6dbc
00000030: fe7a 88bd 8b60 0b3d ff38 d23c 37ba 123e
00000040: 323b a63d bd5e bf3c 5fd4 fe3d cc98 a7bc
00000050: 1bc3 b53d cd36 95bd aadf 0bbe 5826 c0bd
00000060: 1303 793d d725 1dbd 9860 dc3b e967 8cbc
00000070: df45 02bc 227a e8bd 2fca 2bbd 0007 1dbd
00000080: 294b 253d f25f f93d fe15 7dbd 5468 66bd
00000090: 2f13 9ebd 2de2 b03d e3c5 b83d c643 d13d
000000a0: fdc2 0b3d 82ab a6bd c292 783c d6de 153d
000000b0: f2aa bf3c 6506 053e a7c4 eabc 92d6 05bd
000000c0: 9bf8 24bd c6d4 dfbd b1bf d8bd 1de4 ee3d
000000d0: 5009 ccbd 89c3 403d 9ac6 8abd 5d20 05be
000000e0: a3bd f3bb 5dfb 0abe c172 b23d 22c0 a03d
000000f0: 8d3a 75bd 4306 ad3d 1b92 11bd 4e86 31bd
00000100: 02fa b83d 0a35 a43d 1f2d 86bd 4aa8 8b3d
00000110: b79c 36bc f0de f5bc 45c2 a8bd 2029 8d3d
00000120: 2061 863d 326a 003b 8de9 d43d 2265 173e
00000130: 4ec1 883d cea2 8a3d 0882 1bbd 7054 ac3c
00000140: d245 97bc 9247 1dbe ffb8 bdbb 5e14 8dbd
00000150: c6bf 84bd 8c9c 83bd 18b2 1c3e 7597 a53d
00000160: 68aa 963b ffb1 19be 8cbd e93d 62dd fabd
00000170: 9344 1f3c caf4 45be 8e98 d63c 7ca9 c23d
00000180: b739 033e 93d0 863c cb76 43b9 5fd7 c9bd
00000190: 8ff4 a7bc c312 843d db0a 543d 1362 8b3d
000001a0: 8e64 093d a358 e2bc 44b8 343d a79e e2bd
000001b0: 473c 11be 3a04 a7bc e57a 8f3c 38d7 143d
000001c0: cb7a 593d 05d3 ca3c 232b 06be 5934 27be
000001d0: 0a73 bc3d ae21 953d 04c7 f5bd e338 543d
000001e0: 14ac 31bb bf06 1c3d 235a 89bd 0333 143e
000001f0: 245a 893d 1e2d 9e3d eba1 ad3d ff9f 21be
00000200: 777c 31bd 4c42 4a3d 0570 1f3d f9df c0bd
00000210: e5e5 18bd 290a 87bd 3dfc 28be 1306 b63d
00000220: 0eea 593d 0359 e13c 2258 a13d 1a50 883d
00000230: 2621 7f3a 2d35 aa3d bdbe 9a3c 6a60 96bd
00000240: 915b c6bd 73f7 c6bd 487e 1a3d f682 cdbd
00000250: caba 3a3c 9f1a 8e3d 6366 68bd 1379 533c
00000260: 8096 50bd 4d9c 0abe aef9 283d 928e 013e
00000270: a166 553d 9efb a13c 91f3 fd3b aa7a 6cbd
00000280: 799e 05be 0b47 84bd 385a a4bd b953 bebd
00000290: 0722 b6bd 5d35 8c3d d5ee 32bd 1f7a b63d
000002a0: 15cf 5d3d 63f0 05be 2409 0d3d 20f9 623d
000002b0: b533 aa3d 9898 0dbd 8d71 aabd bf40 de3c
000002c0: ed8b 03be 2e39 e2bd d78b 033a 54c1 cabc
000002d0: a85e 0dbe fa27 eebc 579e 18be 028a fdbd
000002e0: 16d9 00be 1afb 953d 3da1 843d 5fd6 bc3b
000002f0: e101 b33d 0185 a63d d03f ad3d 28d5 a13d
00000300: 4e9a 1fbe a39e c33d 2ef3 f7bd 4312 4d3d
00000310: cd6b 863d 9258 c73d 047e 1cbd fe72 acba
00000320: 3d48 873d 201e 1d3d 8c54 13be 22af 91bd
00000330: 64ac 063d 663d 823d 0a40 8fbc 7df9 043e
00000340: be1c 2c3c 2213 1b3d 2986 e2bc bb3f 463d
00000350: 35f4 ba3d 2c33 0fbe d31d 36be a5c7 733d
00000360: 1a83 60bc 661d 333d 838e 04be e95e 173d
00000370: 0e98 8abd 6d2d 9e3d 10a0 e8bd c1f3 07be
00000380: d63c 8fbd d347 c2bc 79b0 9b3d d424 01be
00000390: da02 aabd a528 0b3d 92d0 413d 2837 54bd
000003a0: 7e4b 5ebd 7e9c 00be 53c4 e7bd 2c12 923d
000003b0: d033 253d 63a3 563b 5207 ab3d aac0 19be
000003c0: 7452 c73d bbb4 f83c c10c 973d e6ea 683d
000003d0: fd0a 98bd 01d0 d0bd 5aba 4039 bec5 b43d
000003e0: a3cf 11be 56d5 03bd 2141 8a3d f8f0 aebd
000003f0: 39a0 2dbe 798a ab3d e243 923d e29c 423d
0.13169622 -0.11446191 -0.02536542 -0.13990681 -0.16065715 0.007574999 -0.13356625 0.107186496
-0.113505445 0.06572772 -0.07256074 -0.014472851 -0.06664084 0.034027617 0.025661943 0.14328848
0.08116759 0.023360604 0.1244285 -0.020458601 0.08875104 -0.07285843 -0.1365954 -0.093823135
0.060793947 -0.038366165 0.006725382 -0.017139392 -0.007951229 -0.1135142 -0.041940864 -0.038336754
0.04035488 0.12176503 -0.06178855 -0.05625184 -0.07718503 0.086368896 0.09022119 0.10218005
0.034121502 -0.08138181 0.015171709 0.036589466 0.023396943 0.1299072 -0.028658224 -0.032675333
-0.04027615 -0.10929255 -0.10583437 0.11664603 -0.09962714 0.047061477 -0.067761615 -0.13000627
-0.007438378 -0.1357245 0.08713294 0.078491464 -0.05987029 0.0844846 -0.035539728 -0.043340974
0.0903206 0.08017929 -0.06551575 0.06819208 -0.011145762 -0.030013531 -0.08240179 0.068926096
0.06561494 0.0019594547 0.10396109 0.14784673 0.06677495 0.06769334 -0.037965804 0.021036357
-0.01846591 -0.15359333 -0.0057898755 -0.0688865 -0.064818904 -0.06426343 0.15302312 0.08085529
0.0045979507 -0.15009306 0.11413106 -0.12249257 0.009720939 -0.19331661 0.02619579 0.09504983
0.12814985 0.016456878 -0.00018640903 -0.09855532 -0.020502357 0.06448891 0.051768165 0.068058155
0.033543162 -0.027630156 0.044121042 -0.11065417 -0.1418315 -0.020387758 0.017514655 0.03633806
0.05309562 0.024758825 -0.13102393 -0.16328563 0.092016295 0.072818145 -0.1200085 0.051812064
-0.0027110623 0.03809237 -0.06706645 0.14472584 0.06706646 0.07723449 0.08478149 -0.1578369
-0.04333159 0.049379632 0.03892519 -0.094177194 -0.03732862 -0.06593735 -0.16502471 0.08887877
0.053201728 0.027508264 0.07878138 0.06655903 0.00097324175 0.08310924 0.01888978 -0.07342608
-0.09685434 -0.09715166 0.037718087 -0.100347444 0.011397073 0.06938671 -0.05673827 0.012907284
-0.050924778 -0.13536187 0.041253738 0.12652043 0.052099828 0.0197733 0.0077499826 -0.05773417
-0.13048734 -0.06458863 -0.0802502 -0.092933126 -0.08893209 0.06846116 -0.0436848 0.089100115
0.054152567 -0.13079982 0.034432545 0.055413365 0.083106436 -0.034569353 -0.08322439 0.027130483
-0.12846346 -0.110460624 0.0005018091 -0.02475039 -0.1380564 -0.029071797 -0.14904152 -0.123798385
-0.12582812 0.073232844 0.06476066 0.0057628597 0.08740593 0.08130837 0.08459437 0.079019845
-0.15586206 0.09551742 -0.1210693 0.050066244 0.0656353 0.0973369 -0.038206115 -0.0013156829
0.06605575 0.038358808 -0.14387721 -0.07113482 0.03287925 0.06359367 -0.01748659 0.12985797
0.0105049 0.037860043 -0.027651863 0.04840062 0.0912861 -0.13984364 -0.17784815 0.059516568
-0.013703132 0.04372921 -0.12944989 0.036955748 -0.067672834 0.07723508 -0.113586545 -0.13276578
-0.069940254 -0.02371589 0.07602019 -0.12611705 -0.08301325 0.03397431 0.04731805 -0.051810414
-0.054271214 -0.12559697 -0.11316743 0.07132372 0.040332615 0.0032751195 0.083510056 -0.15014902
0.097325236 0.030359617 0.073754795 0.05686464 -0.07423971 -0.101959236 0.00018379968 0.08826779
-0.14239363 -0.032185875 0.067507036 -0.08542055 -0.16955651 0.08376021 0.07141854 0.047512896

fc2.bias f4 [4]
00000000: 099e 4a3d 1331 a3bd 6650 5d3d 15fe 5a3c
0.04946712 -0.079683445 0.054031752 0.013366242
